Examples/theta_ss.npy (npy, 912 bytes, 1 tensors)

array f8 [98]
0.48155265619722554 0.615184017843471 0.5483702359619586 0.4274379775097737 0.541743728018038 0.47557594625262034 0.5068858020894632 0.3859574265460484
0.4654092723686457 1.0693061635018548 0.867949699087201 0.8002036544651685 0.52920601074356 0.4932911508379833 0.5668951624575729 0.7430991910394328
0.2983914631547961 0.5112468826877643 0.4693680817076074 -0.23543329623869105 0.25916993966005436 0.16871540742999136 0.2394620380945732 0.19458187748653025
0.3098874511043764 0.6117421391147199 0.46879645232815254 0.6701534723724571 0.7656469107526194 -0.009234068525194561 0.2002217277806009 0.924139050084617
0.7187872932915643 0.44066059791075585 0.3924349709915225 0.42292590796229707 0.32547982532357284 0.3426635591261068 0.22968092682283303 0.6242831942248085
-0.5493956140706528 -0.4963735844454386 -0.4263293482730541 -0.44632281384529915 -0.41630568989098743 -0.49637353300598946 -0.0011378698772918246 1.1254953216687866
0.9008810864803811 1.0126834032434096 1.1022374769528447 0.19212378901660723 -0.4815220832892077 0.11682900285398926 0.19872791025815503 0.19626629273607252
-0.04184713971654084 -0.11842622215938585 -0.5872199792863885 -0.5811031733748326 -0.4829652594070542 -0.38390785805325034 0.3989407022088644 0.401543588206818
0.3667017538494724 0.301813725262584 0.09635273071173654 -0.1050060808446904 0.141304663082592 -0.9926161758026214 -0.6289964790591892 -1.1939722906826198
-0.7968104626950421 -0.998166220856019 -0.8164927195217428 -0.793243503947152 -0.7356534071428257 -0.998166368378524 -0.9002061663096363 -0.8225365731529151
-0.8104696654708003 -0.8682749074352206 -0.8682741536143614 -0.8147835971868986 -1.101561268066368 -0.8014556460926165 -0.9350871258156298 -0.5342935830310529
-0.5559797059859927 -0.68754875008341 -0.5329223062389846 -0.7573365019262626 -0.7000800237559222 -0.5114960043555757 -0.11361310829108356 0.07496945452008673
0.23825667291322383 0.4396150142947218
00000000: 26d1 6a3b c2d1 de3f 591b b564 96af e33f
00000010: 27ce b1bc 3f8c e13f 5d43 9ed1 245b db3f
00000020: a7d1 54f1 f655 e13f 20d5 fa17 d66f de3f
00000030: bbfd d892 6838 e03f 6d78 2ac7 86b3 d83f
00000040: fa05 05f9 43c9 dd3f 586d 9ac7 e01b f13f
00000050: d9e1 8472 3ec6 eb3f a429 c2b1 449b e93f
00000060: d7af 9f71 41ef e03f 8357 100c 1592 df3f
00000070: 1c82 e052 0124 e23f 7559 66f4 77c7 e73f
00000080: b3f2 e981 d818 d33f be6d 2a6c 225c e03f
00000090: 851b 2e6c 200a de3f 4509 dea1 ad22 cebf
000000a0: fb8e bc83 3d96 d03f d41e 9f6a 7798 c53f
000000b0: 1bf6 1f2b b1a6 ce3f 6976 1918 0fe8 c83f
000000c0: 39c8 fb2c 32d5 d33f 55a6 2240 6493 e33f
000000d0: 39bc ced5 c200 de3f 547f e4b1 e571 e53f
000000e0: e8e8 3ef3 2d80 e83f ed0d 99b2 4fe9 82bf
000000f0: f915 6296 dda0 c93f eb3c a20e 8c92 ed3f
00000100: d1f6 ae35 4e00 e73f 7066 2a82 c833 dc3f
00000110: 71c7 8d91 a71d d93f 2711 d5d3 3711 db3f
00000120: 4371 5155 a9d4 d43f da90 fe22 33ee d53f
00000130: 6809 9c42 2f66 cd3f 3d6a d4bf 20fa e33f
00000140: 32fa 5f1c a694 e1bf 2ba7 f2b5 95c4 dfbf
00000150: c318 0ae4 fa48 dbbf 0227 3b90 8d90 dcbf
00000160: d11c ce9e c0a4 dabf bb15 b77e 95c4 dfbf
00000170: 4b9e 3e7a 92a4 52bf 20e5 e561 0702 f23f
00000180: f894 8092 04d4 ec3f 691e 2283 f333 f03f
00000190: 2302 bfc3 c3a2 f13f 4112 4e27 8397 c83f
000001a0: 13da 0100 42d1 debf ca6f 7b6a 81e8 bd3f
000001b0: c33b ae89 ea6f c93f 67e6 4dfe 401f c93f
000001c0: cd01 0701 fd6c a5bf 1bd4 294f 2e51 bebf
000001d0: 83f8 d28d 81ca e2bf 2ae5 a7ae 6598 e2bf
000001e0: 217a 901e e7e8 debf 1e08 c143 f291 d8bf
000001f0: 37f1 4195 3e88 d93f d612 d1e0 e3b2 d93f
00000200: 3dd6 0aa2 0a78 d73f 8a26 df83 ea50 d33f
00000210: 2786 4993 92aa b83f 7eec 1bb3 ade1 babf
00000220: d723 5b6d 4516 c23f e9b0 91ff 82c3 efbf
00000230: bd77 5b39 bd20 e4bf 30fe 4cb0 821a f3bf
00000240: c058 cca7 787f e9bf 6f8d 5149 faf0 efbf
00000250: 5893 f856 b520 eabf 79f5 6633 4062 e9bf
00000260: 33d2 9b03 798a e7bf 24e4 8498 faf0 efbf
00000270: 3aa3 7e29 7dce ecbf f294 2e38 3852 eabf
00000280: d61b 7314 5eef e9bf f7e4 6b75 e8c8 ebbf
00000290: 5e8b b7e0 e6c8 ebbf da84 e70c b512 eabf
000002a0: 5a2a 4eb5 fe9f f1bf e031 a54f 86a5 e9bf
000002b0: 953d 09d6 3bec edbf d297 32db ee18 e1bf
000002c0: 9562 cef3 95ca e1bf 0f72 803c 6600 e6bf
000002d0: e95e 9314 b30d e1bf 0ee4 7ac2 193c e8bf
000002e0: b6aa d338 0e67 e6bf 69bd 57de 2c5e e0bf
000002f0: fcd1 81a8 bf15 bdbf ffdb 5cbb 3231 b33f
00000300: 08a8 1bd5 317f ce3f 617d 4e03 a722 dc3f
