Examples/theta_ss_spanish_nz_A.npy (npy, 912 bytes, 1 tensors)

array f8 [98]
000000 d7 59 0e 35 94 8c bd 3f 76 c2 95 ca 20 1b cc 3f
       0.11542631430925297 0.2195778836426318
000010 85 29 b1 0c 4e 71 c5 3f ac 69 39 e6 9e 1e b0 3f
       0.16752029056290155 0.06296723480901417
000020 34 3e c7 8f ef 2b c9 3f d3 50 82 52 3c a6 b7 3f
       0.1966533138315626 0.09238030447369576
000030 db 2e 9b ea e3 ab c1 3f f6 54 c3 65 43 28 a1 3f
       0.13805817561512054 0.033510309383624134
000040 f3 26 8a df 51 ce bb 3f 82 fb 0a ce e5 77 d9 3f
       0.10861694056998399 0.39794297334076856
000050 9d 91 59 ec d8 1e d3 3f 7d b2 31 6f f8 e8 d2 3f
       0.29875777321856295 0.2954693876152204
000060 c7 4f d6 1a 0f 55 c9 3f bd 7a cb c4 84 2d bc 3f
       0.19790829477699232 0.11006955914079249
000070 30 db 30 a4 74 a5 ca 3f 19 07 ad 14 05 ef d2 3f
       0.20817430512553292 0.2958386136925682
000080 50 99 d2 bb b7 1a b9 3f 37 1f 7f 37 50 b5 c3 3f
       0.09806392989648782 0.1539707442263933
000090 03 fc dd 46 86 39 c6 3f 37 98 cf 36 29 4d 68 bf
       0.17363050899800223 -0.0029664807284346634
0000a0 8f 54 45 b6 a0 bd b3 3f 20 6f 71 3f 82 da 66 bf
       0.07711224031420925 -0.0027897399809670015
0000b0 e7 52 3f 5d 6b 39 b6 3f 00 54 07 09 b2 de b1 3f
       0.08681365038439602 0.0698043129007857
0000c0 ca f8 ea c6 8a 0c ac 3f eb 3b 48 fd 04 7d c9 3f
       0.05478318861195104 0.19912779204648187
0000d0 76 f9 e8 ae 4c 11 ba 3f 41 66 00 7e bd ba c9 3f
       0.10182647009148646 0.20101135876102386
0000e0 5e 0f e2 d2 ec 09 ca 3f b9 f4 0e c2 0d a2 59 3f
       0.20342788979553011 0.0015645155292383485
0000f0 00 e4 0e 2b 24 60 b9 3f 96 a0 92 25 e8 2f d3 3f
       0.09912324954247254 0.2997990004464638
000100 73 a4 2d 18 ad 6b d1 3f 90 65 9d 9e 05 f3 c6 3f
       0.27219703065072237 0.17929144139160913
000110 d0 9a f7 67 c0 31 c4 3f 86 c8 a9 54 e9 11 c5 3f
       0.15776829792522173 0.16460911401697248
000120 04 66 2b fd 76 1e b1 3f a2 cc 61 9c 6b ab bc 3f
       0.06687110596558205 0.11199066703720686
000130 20 a9 cb aa ed 9e ae 3f 02 b5 53 c9 0c e2 d0 3f
       0.05980627736956223 0.26379699383581123
000140 1d 93 62 aa e6 a6 ba bf 52 e7 3d c7 ee e5 c8 bf
       -0.1041092077235359 -0.19451698998073624
000150 e4 0e 0a 80 00 bf b8 bf ea d9 4d e9 5d 2b c0 bf
       -0.09666445852240774 -0.12632345096399372
000160 7f ea 87 e1 36 ed b7 bf 0b f8 ab 82 ee e5 c8 bf
       -0.09346335416914008 -0.19451695805031508
000170 4a 46 6f 86 9b 1c 11 bf 3a 09 cc aa f2 88 d9 3f
       -6.52761387833985e-05 0.39898363761325906
000180 f6 d4 31 d1 02 3a d3 3f 43 16 97 51 22 74 d9 3f
       0.3004157107273636 0.39771326034346915
000190 16 02 2e 40 0d 93 d9 3f 34 73 12 25 bb ca b9 3f
       0.39960032718229976 0.100749680090712
0001a0 4a 66 3d 93 f4 90 b9 bf 3a 42 f3 02 70 93 90 bf
       -0.09986809344027239 -0.016187429599826532
0001b0 ae 4b 08 76 9c 75 b0 3f a2 c8 a9 f8 d9 ec b0 3f
       0.06429460412645824 0.06611406632308328
0001c0 fc 41 4d 94 bd f8 a0 bf a1 cd 11 d2 62 c5 9c bf
       -0.03314773974728166 -0.0280967179027819
0001d0 a8 30 88 4e 5b 1b c1 bf 12 85 f1 34 c7 54 c1 bf
       -0.1336473592240328 -0.1353997238648295
0001e0 b2 c9 43 9f 53 e2 bf bf bb fc 35 34 74 43 c0 bf
       -0.12454722059536641 -0.12705853032455203
0001f0 c3 54 59 2c 76 06 c5 3f c1 c5 4c 51 d6 27 c5 3f
       0.16425969281650596 0.16527823419305146
000200 a4 13 12 59 35 28 b1 3f 9c ef b5 59 ee 66 b2 3f
       0.06701978134704106 0.07188310327722863
000210 0b be 2b dc d3 3c a1 bf e7 b1 e9 c8 4c 01 c1 bf
       -0.033667202593161326 -0.13285217104147692
000220 f6 62 f7 e0 af 39 8a 3f b0 46 c1 ac 9b 21 ce bf
       0.012805341771057393 -0.235400637963314
000230 f7 07 5e 2d 8a 7c ce bf 47 52 4c 99 d9 69 d5 bf
       -0.23817565169525753 -0.3345855710079246
000240 1d ec b8 dc 7e be c9 bf 8c b3 58 49 55 38 d3 bf
       -0.20112596299608834 -0.30031330263846523
000250 9e 0c 76 ef ba 77 ca bf 4e b2 87 77 90 57 c9 bf
       -0.2067788762325095 -0.197984751095094
000260 16 01 06 66 d8 7b c7 bf c6 81 70 61 55 38 d3 bf
       -0.18346695882429093 -0.3003133250768112
000270 44 d6 59 e1 d8 e4 d3 bf 22 72 ee 2f 26 05 ce bf
       -0.31084272391249024 -0.23453214016343887
000280 50 f3 6f 6e 8f d7 ca bf e7 88 6a fc 3e 32 d3 bf
       -0.20970337765165903 -0.29994177484526435
000290 e2 44 14 38 3b 32 d3 bf 06 e0 31 f2 ee b2 ca bf
       -0.29994087673646963 -0.20858561349791688
0002a0 91 20 42 01 ea 3d da bf 7e 03 35 5b e9 b9 cf bf
       -0.41002893565065174 -0.24786107018919873
0002b0 73 28 aa de 5f 87 d6 bf 24 c1 ff 47 55 93 b5 bf
       -0.35201260323140743 -0.08427937515057643
0002c0 61 d1 80 bd 72 36 c7 bf 68 14 9c 5e 87 38 d2 bf
       -0.18134912732206046 -0.2847002433703154
0002d0 42 d5 02 45 4c 7c c7 bf 4a 4d 70 ca 44 f4 d1 bf
       -0.18348077172928795 -0.28053397912409095
0002e0 b4 59 de 96 b9 6a d5 bf d8 c5 58 d0 34 d1 cd bf
       -0.33463897450692603 -0.23294696973020623
0002f0 d8 76 2b ab 70 db c0 bf 6c 20 fa c2 d3 ba 9e bf
       -0.1316967807569458 -0.030009564185576584
000300 73 d8 9b ea aa 50 b1 3f 76 1c 90 0e 8b 5a c5 3f
       0.06763714053872309 0.16682565890389228
